model.pth (torch, 31375 bytes, 7 tensors)

g_1.0.weight f4 [32, 1, 5, 5]
0	0xbd86fa69	-0.06590731
1	0x3e151ae6	0.14561042
2	0xbe09b7d2	-0.13449028
3	0x3df0e2f4	0.11762038
4	0x3dee6aa3	0.11641433
5	0x3e509efb	0.20373146
6	0x3d448142	0.047974832
7	0xbe2b3f24	-0.16723305
8	0xbbf9f5f1	-0.0076281955
9	0x3df174b3	0.11789837
10	0xbd005c75	-0.031338174
11	0x3ca08992	0.019596849
12	0x3e45750a	0.19282928
13	0x3e1065c3	0.14101319
14	0x3e426bbc	0.1898641
15	0x3cb1bdbb	0.021696916
16	0xbd08eb11	-0.0334273
17	0x3c23891a	0.009981418
18	0x3da49090	0.080353856
19	0xbe393b2a	-0.18088976
20	0x3dfd70e8	0.12375051
21	0x3e38624d	0.18006249
22	0xbe073d56	-0.13206992
23	0x3e52a237	0.20569693
24	0xbe1f41e3	-0.15552478
25	0xbde659f4	-0.11247626
26	0x3e181dfc	0.14855188
27	0x3e46ce10	0.19414544
28	0x3dc9b006	0.09848027
29	0xbc41ae41	-0.0118213305
30	0x3e12244b	0.14271657
31	0xbe077bab	-0.1323077
32	0x3d043e0d	0.03228574
33	0x3e3ea29e	0.18616721
34	0xbd2c5a55	-0.042078335
35	0xbded49ba	-0.11586328
36	0x3e0d168e	0.13778135
37	0xbe3b536a	-0.18293539
38	0xbd4420db	-0.047882896
39	0xbcea3651	-0.028590353
40	0xbb5d0782	-0.0033726399
41	0x3d4fc731	0.050727073
42	0x3df220cf	0.11822664
43	0x3d519499	0.051167104
44	0x3d5c8539	0.05383799
45	0xbe433a2b	-0.19065158
46	0xbc4610af	-0.012088939
47	0x3df00c2d	0.11721072
48	0x3d950327	0.07275992
49	0x3de93e37	0.1138882
50	0x3d83a159	0.06427259
51	0xbe2a67e7	-0.16641198
52	0xbd01ab2e	-0.03165739
53	0x3e207dd9	0.15673007
54	0x3e32266e	0.17397472
55	0x3cc2e1c8	0.023789302
56	0xbe32bb76	-0.17454323
57	0xbc04afb4	-0.0080985315
58	0x3d926833	0.07148781
59	0xbd7e4402	-0.062076576
60	0xbd571c75	-0.052517373
61	0xbc062a91	-0.00818886
62	0x3e5c2ac4	0.21500689
63	0xbe20cd0b	-0.15703218
64	0xbdc62ee5	-0.09676913
65	0x3cce9ece	0.025222208
66	0xbda64ed7	-0.08120506
67	0xbd90910f	-0.07058918
68	0x3cbf6da2	0.023367707
69	0xbd0234da	-0.031788684
70	0xbe28442b	-0.16432254
71	0xbd79fbc6	-0.061031125
72	0xbd9c507a	-0.07632537
73	0x3d89b201	0.06723405
74	0xbcc57b1e	-0.024106558
75	0xbddf9559	-0.10917158
76	0x3d02de6d	0.031950403
77	0x3de028fc	0.10945317
78	0xbdcfb5de	-0.1014211
79	0xbd898ce1	-0.06716324
80	0x3be31f59	0.006931227
81	0x3dc380bd	0.09546039
82	0x3e4110ce	0.18854067
83	0xbb8a854f	-0.0042273174
84	0x3e2a888a	0.16653648
85	0x3da29da7	0.07940226
86	0xbdfda9a1	-0.1238587
87	0xbe1b8f04	-0.15191275
88	0x3db9b09d	0.090668894
89	0xbcbe5c13	-0.023237264
90	0xbd9dfba6	-0.07714014
91	0xbdee877e	-0.11646937
92	0x3d93bec7	0.07214122
93	0x3e332686	0.17495164
94	0xbe0498e5	-0.1294895
95	0xbd8e5083	-0.0694895
96	0xbe30b52e	-0.17256615
97	0x3d5dc289	0.0541406
98	0xbe408e5b	-0.18804304
99	0x3dc55348	0.09635025
100	0x3e2ca90a	0.16861358
101	0xbab50c20	-0.0013812818
102	0x3c94d5d2	0.018168364
103	0xbdf5f4a3	-0.120095514
104	0x3cec26ea	0.02882715
105	0xbe209934	-0.15683442
106	0x3e108fe0	0.14117384
107	0xbe2d9869	-0.16952671
108	0xbdd8656f	-0.10566222
109	0x3d95da25	0.073169984
110	0xbe295806	-0.16537485
111	0xbd9d5fbb	-0.07684275
112	0x3e336ac9	0.17521204
113	0xbda89708	-0.08231932
114	0xbe1eda22	-0.15512899
115	0xbc60e25b	-0.013725842
116	0x3dcdc3d6	0.10047118
117	0xbda90055	-0.082520165
118	0x3e05387e	0.13009831
119	0xbdd8089d	-0.10548518
120	0xbdd40a23	-0.10353496
121	0xbd572d83	-0.052533638
122	0x3d209ea3	0.039213788
123	0x3e4169d5	0.18888028
124	0x3d438cda	0.04774175
125	0x3e26350e	0.16231176
126	0x3ccf241d	0.025285775
127	0xbddef129	-0.108858414
128	0xbd2c6b69	-0.04209462
129	0x3d041794	0.03224905
130	0x3db86198	0.090029895
131	0xbd195556	-0.0374349
132	0x3e544cd7	0.20732437
133	0x3d1b7938	0.0379574
134	0xbdf030b3	-0.11728039
135	0xbddfa716	-0.10920541
136	0x3e30ea1f	0.1727681
137	0xbdcaa002	-0.098938
138	0x3dd74241	0.10510684
139	0x3e3cf423	0.18452506
140	0xbd725fe6	-0.059173487
141	0x3e14766b	0.14498298
142	0x3cc88cdf	0.024481235
143	0x3c2b0d0d	0.010440123
144	0xbc3e6e99	-0.011623048
145	0x3bda16ea	0.0066555636
146	0x3d1c8012	0.038208075
147	0x3cca39fc	0.024685852
148	0x3d2cbe21	0.04217351
149	0xbdfd102d	-0.12356601
150	0x3e150550	0.14552808
151	0x3dd03875	0.10167018
152	0xbd4c3835	-0.04985829
153	0x3e4bc703	0.19900136
154	0xbd40fc20	-0.047115445
155	0x3d98521d	0.07437537
156	0x3e33ab98	0.17545927
157	0x3d0b28ab	0.03397433
158	0xbd9a0fe0	-0.07522559
159	0xbe43b636	-0.19112477
160	0x3d152f2b	0.036421936
161	0xbd6953d9	-0.05696473
162	0x3e0b237f	0.1358776
163	0xbe1ce6e4	-0.15322453
164	0x3d7a79a6	0.06115117
165	0xbe2a876a	-0.16653219
166	0x3e384044	0.17993265
167	0xbe1e8a30	-0.15482402
168	0x3c9c1daa	0.019057114
169	0x3df47740	0.11936808
170	0xbe062e48	-0.13103592
171	0x3c43b636	0.011945298
172	0xbd758778	-0.059943646
173	0x3d9c3e74	0.076290995
174	0x3de5825b	0.11206504
175	0x3e32aa54	0.17447788
176	0xbde82d69	-0.11336786
177	0xbe524b01	-0.20536424
178	0x3c611f01	0.013740302
179	0xbe119dfc	-0.14220423
180	0xbe1f228c	-0.15540522
181	0x3d004ae4	0.03132142
182	0xbb345912	-0.002751891
183	0x3e35439d	0.17701574
184	0x3d844020	0.064575434
185	0xbe1bef8f	-0.15228103
186	0xbe1ac59c	-0.15114444
187	0xbe208194	-0.1567443
188	0x3dd45484	0.103676826
189	0x3d83925a	0.06424399
190	0x3e36cbf4	0.1785124
191	0xbdd9431c	-0.10608503
192	0x3e01f1b6	0.12689862
193	0xbc3421d1	-0.010994391
194	0xbd816177	-0.06317418
195	0xbe462877	-0.19351374
196	0x3da788ab	0.08180364
197	0xbcee9d7b	-0.029127827
198	0xbd7629ce	-0.06009846
199	0xbe102125	-0.14075144
200	0xbd07b136	-0.033127986
201	0x3e38d697	0.1805061
202	0x3e406a3b	0.18790524
203	0xbd253e62	-0.040342696
204	0x3dfc1019	0.12307758
205	0x3e009a5d	0.12558885
206	0xbd16a97a	-0.03678272
207	0xbdeb87de	-0.11500524
208	0xbd8bb6cd	-0.06821976
209	0xbaaf8734	-0.0013391734
210	0xbbc5b0af	-0.006033025
211	0x3e16c384	0.14723021
212	0x3da8c5f1	0.08240879
213	0xbe05d6bc	-0.13070196
214	0x3da0c2d2	0.07849659
215	0x3e1ea6fb	0.15493385
216	0xbd06ff79	-0.03295848
217	0x3dfb0a30	0.122578025
218	0x3c6e974d	0.01456244
219	0x3d2fc90c	0.042916343
220	0x3e28b1f9	0.16474141
221	0x3cc2d307	0.023782266
222	0xbd0af974	-0.033929303
223	0xbd8332e3	-0.0640619
224	0x3e4fe340	0.20301533
225	0x3e2a5769	0.16634907
226	0x3e467413	0.19380216
227	0xbe303e89	-0.17211355
228	0x3dd994d6	0.10624091
229	0x3aa76607	0.0012771495
230	0xbb0c3660	-0.0021394715
231	0x3de0d627	0.10978346
232	0x3db275bf	0.087138645
233	0x3e38311b	0.17987482
234	0x3cbbd585	0.022928962
235	0xbc96acdb	-0.01839297
236	0x3df3918e	0.11892997
237	0xbd96c1ba	-0.07361169
238	0xbdf61273	-0.12015238
239	0x3e2a4015	0.16626008
240	0x3e274d8f	0.1633818
241	0xbc1fc16b	-0.009750704
242	0x3dae6e22	0.085171
243	0xbdde9e45	-0.10870031
244	0x3e116688	0.14199269
245	0x3e4b088b	0.19827478
246	0xbe1c6157	-0.15271507
247	0xbdb0b33b	-0.086279355
248	0xbde7e384	-0.11322692
249	0xbe21b3c8	-0.15791237
250	0xbccc61fd	-0.024949068
251	0x3da12633	0.07868614
252	0xbdbda27c	-0.09259507
253	0x3d672e9c	0.056440935
254	0xbd475b70	-0.048671186
255	0x3dad2788	0.084548056

g_1.0.bias f4 [32]
0	0x3e1d79cd	0.15378495
1	0x3d1e3e30	0.038633525
2	0xbce1a5b6	-0.027544837
3	0x3dc857a6	0.097823426
4	0xbe16c519	-0.14723624
5	0xbe0c2c64	-0.13688809
6	0xbdfa9a1f	-0.122364275
7	0xbdf6f93a	-0.12059255
8	0x3e33a1e5	0.17542227
9	0x3db4aba4	0.088218
10	0xbd8b70c6	-0.06808619
11	0xbdb6c06b	-0.089234196
12	0xbdb69bbd	-0.089164235
13	0xbdd701d7	-0.10498398
14	0x3e2e9ce2	0.17052034
15	0x3dec5a10	0.115406156
16	0x3e4675fd	0.19380946
17	0x3e510954	0.20413715
18	0xbdf29bfa	-0.118461564
19	0x3dac31e9	0.08407957
20	0xbdc1815c	-0.094485015
21	0xbe1d871f	-0.15383576
22	0xbd574065	-0.052551646
23	0x3db037dc	0.08604404
24	0x3dc5d82d	0.09660373
25	0xbddbba36	-0.10728876
26	0xbdd0493a	-0.10170217
27	0x3cc4ed70	0.024039
28	0xbc4fdc64	-0.012686823
29	0xbba0bbe7	-0.004905212
30	0x3e134d19	0.14384879
31	0x3da3eacf	0.080037706

g_1.3.weight f4 [32]
0	0x3f869fda	1.0517533
1	0x3f849bbd	1.0360028
2	0x3f8b5842	1.0886309
3	0x3f867999	1.0505859
4	0x3f8a5f98	1.0810423
5	0x3f87350c	1.0563064
6	0x3f878415	1.0587183
7	0x3f88cddf	1.0687827
8	0x3f85fb33	1.0467285
9	0x3f87146f	1.0553111
10	0x3f89b8c2	1.0759509
11	0x3f8869bc	1.0657268
12	0x3f85d39a	1.0455201
13	0x3f882de8	1.063901
14	0x3f864f43	1.0492939
15	0x3f8a68a5	1.0813185
16	0x3f8ce7ce	1.1008241
17	0x3f88449e	1.064594
18	0x3f8971b1	1.0737821
19	0x3f8aaea5	1.0834547
20	0x3f872a19	1.0559722
21	0x3f84f473	1.03871
22	0x3f8853fe	1.0650632
23	0x3f882b5a	1.063823
24	0x3f89b843	1.0759357
25	0x3f84d888	1.037858
26	0x3f8809e4	1.0628018
27	0x3f875111	1.0571615
28	0x3f89a5a5	1.0753676
29	0x3f8c7fb3	1.0976471
30	0x3f88f50d	1.0699784
31	0x3f88eae6	1.0696685

g_1.3.bias f4 [32]
0	0xbcbb25cb	-0.02284517
1	0xbc0c8252	-0.008575993
2	0x3c0a0155	0.008423169
3	0xbc565d9e	-0.0130838435
4	0xbc6eb074	-0.014568437
5	0xbc659742	-0.014013113
6	0x3aa4777d	0.0012547817
7	0xbcc5b25d	-0.024132902
8	0x3c8875ea	0.016657788
9	0x3bf83791	0.0075749834
10	0xbae1cb30	-0.0017226692
11	0xbc7ef64b	-0.0155616505
12	0x3cd5f22f	0.026116459
13	0x3caaa040	0.020828366
14	0x3d192532	0.037388988
15	0x3c4d7b31	0.012541578
16	0x3bff2749	0.0077866656
17	0x3c4e873a	0.012605483
18	0xbc1fdfab	-0.009757916
19	0xbcd54bad	-0.026037062
20	0x3b58e9cf	0.0033098345
21	0x3c842fe9	0.016136127
22	0x3ca41b27	0.020032478
23	0xbc2cb5b3	-0.010541367
24	0xbbb3068c	-0.005463427
25	0x3bf8de7c	0.0075948816
26	0x3c78021d	0.015137223
27	0x3bf6fd9b	0.0075375563
28	0xbcb6d0c6	-0.022316348
29	0xbcbc6173	-0.022995686
30	0xbcad3ebd	-0.02114808
31	0x3c3cf340	0.011532605

g_1.3.running_mean f4 [32]
0	0x3eece54a	0.46268684
1	0x3ea50d60	0.32236767
2	0x3e4f0904	0.20218283
3	0x3e938369	0.28811195
4	0x3db929c4	0.09041169
5	0x3e6aea57	0.22940956
6	0x3e6c624a	0.2308437
7	0x3e1b1854	0.15145999
8	0x3ee7d3f8	0.45278907
9	0x3ece214c	0.40259778
10	0x3df7de49	0.121029444
11	0x3e3dcf8e	0.18536207
12	0x3e3cca9d	0.18436666
13	0x3eb2dbb2	0.3493324
14	0x3ed5a255	0.41725412
15	0x3e9a71dc	0.30164993
16	0x3ea75eeb	0.32689604
17	0x3eac5a02	0.3366242
18	0x3e7d80e2	0.24756196
19	0x3e8fdaf6	0.2809674
20	0x3e2273c7	0.15864478
21	0x3e8a5aa7	0.27022287
22	0x3e2d3a20	0.16916704
23	0x3e9873e4	0.29775918
24	0x3e87a12d	0.26490155
25	0x3e8c0c51	0.27353147
26	0x3e44af04	0.19207388
27	0x3e9ed92b	0.3102506
28	0x3e1f73f0	0.1557157
29	0x3e1c2cee	0.15251514
30	0x3ec8248c	0.39090383
31	0x3e895b27	0.26827356

g_1.3.running_var f4 [32]
0	0x3f0dd10b	0.553971
1	0x3e9a8d74	0.30186045
2	0x3d46f942	0.048577555
3	0x3db43cd5	0.08800665
4	0x3d1b7058	0.037948936
5	0x3e4334a6	0.19063053
6	0x3e3fbfc8	0.18725502
7	0x3cd6b5af	0.02620968
8	0x3eee4bf7	0.46542332
9	0x3ee006f1	0.43755296
10	0x3d3dedba	0.04636929
11	0x3dda6f5f	0.106657736
12	0x3ddb3a4b	0.10704478
13	0x3ee3e9bb	0.4451426
14	0x3ea52e34	0.32261813
15	0x3e7dfa69	0.24802555
16	0x3d30a8b2	0.04312963
17	0x3e1e58db	0.15463583
18	0x3e8ef74e	0.27923054
19	0x3e42e8d0	0.19034123
20	0x3d868a95	0.06569401
21	0x3e733388	0.23750126
22	0x3d9fe75d	0.07807801
23	0x3e821816	0.25409
24	0x3e101145	0.14069088
25	0x3e80bd33	0.25144348
26	0x3df55e9d	0.11980937
27	0x3e9138e6	0.28363723
28	0x3d8d00fc	0.068849534
29	0x3d5bcb25	0.05366053
30	0x3d768daa	0.060193695
31	0x3e1fee99	0.15618362

g_2.weight f4 [4, 1568]
0	0xbc9f7636	-0.019465547
1	0xbba4c8a7	-0.0050288024
2	0xbb17cff1	-0.0023164714
3	0xbb34dbaf	-0.0027596762
4	0xbd062b05	-0.03275587
5	0xbcd5e812	-0.026111636
6	0xbccbae73	-0.024863457
7	0xbb3e8a26	-0.0029074042
8	0x3b14c64e	0.0022701207
9	0xbc8d9db8	-0.01728712
10	0xbc92739d	-0.017877394
11	0xbd21d16f	-0.039506372
12	0xbd504fa3	-0.050857197
13	0xbc336fd4	-0.010951955
14	0xbca385f2	-0.019961331
15	0xbcaddfb3	-0.021224832
16	0xbca5ba7d	-0.020230526
17	0x3c95831a	0.01825099
18	0xbaadcf54	-0.0013260641
19	0xbacf1c92	-0.0015801361
20	0x393f1e9a	0.0001822658
21	0xbcc78625	-0.024355957
22	0xbae83deb	-0.0017718648
23	0xbd04d7b8	-0.032432288
24	0xbc392090	-0.011299267
25	0x3c520b9d	0.012820152
26	0xbcdccba2	-0.026952568
27	0x3b53b586	0.0032304241
28	0xbc87c36f	-0.016572682
29	0x3c322fc0	0.010875642
30	0x3c3db433	0.011578607
31	0x3caaaaa5	0.020833323
32	0xbc84f642	-0.016230706
33	0xbca48044	-0.020080693
34	0x3c2552ff	0.010090589
35	0xbbeb16c4	-0.0071743447
36	0x39fef1f4	0.00048626924
37	0xbb971710	-0.0046109036
38	0xba58d285	-0.0008271116
39	0x3bb60893	0.0055552213
40	0x3bbb00ad	0.0057068677
41	0x3ca08e67	0.019599153
42	0xbd1e7356	-0.03868421
43	0xbc2d5023	-0.010578188
44	0xbc05d0c0	-0.008167446
45	0x3ce4e955	0.027943293
46	0x3cca1294	0.024667062
47	0x3d3c733d	0.046008337
48	0x3c414589	0.011796364
49	0xbd151d4d	-0.036404897
50	0xbd0dae99	-0.034590337
51	0x3b93bed2	0.0045088315
52	0xbc39052a	-0.011292735
53	0xbca81de5	-0.020522067
54	0xbd458890	-0.04822594
55	0xbd18b3ff	-0.037281033
56	0xbcacae33	-0.021079158
57	0x3bea9e75	0.007160003
58	0xbca8957a	-0.020579088
59	0xbc41c52f	-0.011826797
60	0x3c805f8b	0.015670558
61	0xbb3665da	-0.0027831704
62	0xbcd7250c	-0.026262783
63	0x3a088d5a	0.00052090513
64	0xbcf56c67	-0.029958917
65	0xbae10c9e	-0.0017169898
66	0xbcb09359	-0.021554636
67	0xbcc2fcef	-0.023802249
68	0x3cc13c48	0.023588315
69	0xbd231b56	-0.03982099
70	0xbc9f8e5c	-0.019477062
71	0xbc19cb7d	-0.009386894
72	0xbb3f7862	-0.002921604
73	0xbcca642e	-0.024705973
74	0x3c160da6	0.0091585275
75	0x3c9a73ac	0.018853985
76	0xbc282189	-0.010261902
77	0xbb81f0eb	-0.0039654872
78	0xbc5ac857	-0.013353429
79	0x3c0fd026	0.008777654
80	0x3c87f1dd	0.016594822
81	0x3c5cea7b	0.013483639
82	0x3cff075c	0.031131439
83	0x3cc83274	0.02443812
84	0xbd087665	-0.033316035
85	0x3b61a9b9	0.0034433438
86	0x3c9f888f	0.019474296
87	0x3c9916fb	0.018687716
88	0x3d179114	0.03700359
89	0x3c3837e8	0.011243798
90	0x3d1886c1	0.037237886
91	0xbcd4f202	-0.025994305
92	0xbcb22bc0	-0.021749377
93	0x3b581360	0.0032970533
94	0x3cceea3b	0.025258174
95	0xbc19b654	-0.009381849
96	0x3cc0a936	0.023518186
97	0x3cc0352b	0.023462852
98	0xbbc27405	-0.0059342408
99	0xbc04b143	-0.008098903
100	0x3d1263ff	0.035739895
101	0x3c9e163b	0.01929771
102	0x3cb8d312	0.022561584
103	0x3d409f0c	0.04702668
104	0xbd9f9cff	-0.077936165
105	0xbcee8a67	-0.02911873
106	0xbc6e4c32	-0.014544534
107	0x3c453476	0.012036433
108	0xbd1e8c7c	-0.038708195
109	0xbc590005	-0.013244634
110	0xbd630c7d	-0.05543183
111	0xbcbf9c2e	-0.023389902
112	0xbc9a3fac	-0.01882919
113	0xbcafb0d6	-0.021446627
114	0x3c82a814	0.015949287
115	0x3c0d5eba	0.008628542
116	0xbc810d9c	-0.01575356
117	0x3d04e79c	0.032447442
118	0x3d1cc5c1	0.03827453
119	0xbd217afd	-0.03942393
120	0xbc73794f	-0.014860465
121	0x3c4ebc11	0.012618081
122	0x3d1edf0b	0.03878693
123	0x3c20cb28	0.009814061
124	0x3d583df0	0.052793443
125	0x3c5a10bc	0.013309654
126	0xbc8f3c36	-0.017484765
127	0xbc5cee1c	-0.013484504
128	0x3b23f937	0.002502037
129	0x3ccd1064	0.02503223
130	0x3bc14b32	0.0058988566
131	0x3b530731	0.0032200331
132	0xbcdea864	-0.027179904
133	0xbb629fe1	-0.0034580159
134	0xbb2abd22	-0.0026052673
135	0xbc021b0f	-0.007941022
136	0x3c2b54fe	0.010457275
137	0xbc9aafef	-0.01888272
138	0x3bbbde92	0.0057333196
139	0xbcfc0640	-0.030764699
140	0xba38e1a3	-0.00070526655
141	0x3cbb6952	0.02287737
142	0x3c8d639e	0.017259415
143	0xbbd3fb63	-0.0064691766
144	0x3cf17053	0.029472506
145	0xbba1af9c	-0.0049342643
146	0x3c861299	0.01636629
147	0x3b5e6004	0.0033931741
148	0x3c9b9698	0.018992707
149	0xbc903d73	-0.017607426
150	0xbbdefe09	-0.0068051857
151	0xbccb69d7	-0.024830742
152	0xbd0b5acc	-0.034022138
153	0xbcae173a	-0.02125131
154	0xbd0d7c15	-0.034542162
155	0xbca01d19	-0.019545125
156	0xbc3c9c27	-0.011511839
157	0xbd08319b	-0.033250432
158	0xbce7507c	-0.02823662
159	0xbcdc2d50	-0.026877075
160	0xbcd452e2	-0.025918428
161	0xbd295148	-0.04133728
162	0xbcba2dea	-0.022726972
163	0xbc4f0a48	-0.012636729
164	0xbc3f041f	-0.011658697
165	0x3ce17e7e	0.027526136
166	0x3ce2a455	0.02766625
167	0x3cce0cb4	0.025152542
168	0xbc05a23c	-0.0081563555
169	0x3b836e95	0.004010985
170	0x3a4445e1	0.00074872194
171	0x3c1f7581	0.009732605
172	0x3d230201	0.039796833
173	0x3d09d135	0.03364678
174	0x3d1e13e5	0.03859319
175	0x3c567236	0.013088753
176	0xbc8e8959	-0.017399477
177	0xbb448049	-0.002998369
178	0xbb3678d3	-0.0027843013
179	0xbcbb2d1e	-0.022848662
180	0xbc9f1b8c	-0.019422315
181	0xbcb7392a	-0.022366125
182	0xbcce0710	-0.025149852
183	0x3cb4d42b	0.022073826
184	0x3bdfb9f1	0.006827586
185	0x3ca1de97	0.01975946
186	0xbce8d704	-0.02842284
187	0xbbbd6407	-0.0057797465
188	0x3c764af3	0.015032518
189	0xbcfcc9e0	-0.03085798
190	0xbcaa28d2	-0.020771418
191	0x3af930a3	0.0019011687
192	0x3d067a83	0.03283168
193	0x3c14384d	0.009046626
194	0x3cdcdb0d	0.02695992
195	0x3c970455	0.018434683
196	0xbd1946d3	-0.03742106
197	0xbd2df366	-0.04246845
198	0xbd01bc0d	-0.03167348
199	0xbbc18311	-0.005905517
200	0xbd20a361	-0.03921831
201	0xbcb6c886	-0.022312414
202	0xbd67eb03	-0.05662061
203	0xbd23334c	-0.039843842
204	0xbb3fdb7e	-0.0029275115
205	0x3b904ec5	0.0044039213
206	0xbc44bed6	-0.012008389
207	0xbb8b2b53	-0.004247108
208	0x3d14b106	0.036301635
209	0x39eda948	0.00045330287
210	0xbc5c33c9	-0.013440081
211	0xbcbdfbff	-0.02319145
212	0xbc914304	-0.01773215
213	0xbbc1ddbd	-0.005916326
214	0xbb10a770	-0.0022072457
215	0x3cb0eebb	0.02159821
216	0xbb13af34	-0.002253485
217	0xbc663426	-0.014050519
218	0x3cdcee9e	0.02696925
219	0xbc2a2e7e	-0.010387061
220	0x3b6e12ac	0.0036327047
221	0x3c61d1e3	0.013782951
222	0x3cd339a6	0.025784325
223	0x3c93e5b5	0.018053869
224	0xbc8fc3ca	-0.017549414
225	0x3c96320f	0.018334417
226	0x3c7beba4	0.015376005
227	0x3c042dd8	0.008067571
228	0x3cf94fd7	0.030433578
229	0x3bfe82db	0.007767064
230	0x3c3c42a6	0.0114905
231	0xbd09a9b4	-0.033609107
232	0xbccb4de8	-0.024817422
233	0x3c2d2b8b	0.0105694635
234	0x3bab8451	0.005234279
235	0xbc1fbdef	-0.009749874
236	0xbb81e843	-0.0039644553
237	0x3d013f79	0.031554673
238	0x3cb35186	0.02188946
239	0xbd14e80b	-0.036354106
240	0xbc3145b7	-0.010819844
241	0x3bd1cc6c	0.006402543
242	0xbd419adf	-0.047266837
243	0xbd24952a	-0.040181316
244	0x3b3c3efb	0.0028724063
245	0xbc28482c	-0.010271113
246	0x3c51020a	0.012756834
247	0xbc822496	-0.015886586
248	0xbc2805b7	-0.010255269
249	0xbd1d5cdb	-0.038418632
250	0xbd3b0b65	-0.045665164
251	0xbd1353b3	-0.035968494
252	0xbc407309	-0.0117461765
253	0xbd0b21b6	-0.033967696
254	0xbb3d8b89	-0.002892228
255	0xbc8936a9	-0.016749697
